MagicKnob/python/model_test.onnx (onnx, 20799 bytes, 4 tensors)

onnx::LSTM_117 f4 [1, 128, 1]
0.11868087 0.00026117204 0.056558542 -0.091755 -0.052441414 -0.12523207 -0.06438168 -0.10171177
0.0064436593 0.0085280705 0.01673981 0.056653608 0.07150842 0.161161 -0.024883043 0.00993566
0.06670453 -0.03996544 0.018267812 -0.045939263 -0.029053703 0.19311717 -0.010018991 -0.015329638
-0.14885242 -0.21373628 0.016269032 -0.040272627 0.1388092 -0.28782693 0.016134758 0.11096023
0.12652369 0.00020253219 0.031289946 -0.017091943 0.0066562323 -0.14225154 -0.05918965 -0.16256486
0.0076825996 0.015985914 0.055363964 -0.077618614 -0.032099478 -0.025881598 -0.71271986 0.33666176
0.13882762 -0.20325913 -0.0002747639 -0.058536466 -0.052933663 0.30081636 0.051485736 -0.031914078
-0.099490985 0.064008504 0.2593348 -0.17844492 -0.067993015 -0.33963317 0.024421712 -0.03637813
0.17476605 0.00010962036 0.07659474 0.21302135 -0.035362314 -0.13435046 0.2700972 -0.017798448
0.014216535 0.011330694 0.016811626 0.07033746 0.015656486 0.20580344 0.25536764 -0.004390319
0.16017185 0.027206914 0.12198383 -0.13101453 0.10667255 0.15836926 -0.010301683 0.00952725
0.12828042 -0.30382857 0.0052916515 -0.065014794 -0.01412923 -0.22227637 0.008548012 0.07114173
0.2637209 -0.021874424 5.5629034 0.11626505 0.2686351 0.05653453 -0.051690523 -0.053761154
-0.4426798 0.25570482 0.13295625 -0.04944851 -1.2861563 1.8613138 -0.3524544 -0.4962588
0.30014026 0.30179518 -3.2817485 0.006773546 -0.5897265 0.0983245 0.019910663 -0.060323086
0.39512056 0.43966547 -0.36113417 -0.24680518 0.36565632 -0.3773017 -0.07035128 -0.49246538
00000000: f50e f33d ebed 8839 eea9 673d 0cea bbbd
00000010: cfcc 56bd d63c 00be 8bda 83bd 434e d0bd
00000020: 5525 d33b 52b9 0b3c ed21 893c 9d0d 683d
00000030: 0273 923d 6407 253e 86d7 cbbc 2ec9 223c
00000040: 629c 883d cdb2 23bd 61a6 953c cf2a 3cbd
00000050: 0802 eebc 82c0 453e b226 24bc 2929 7bbc
00000060: c56c 18be afdd 5abe a246 853c e9f4 24bd
00000070: 0024 0e3e 0d5e 93be 0a2d 843c 1e3f e33d
00000080: 6d8f 013e d25e 5439 e329 003d 6704 8cbc
00000090: 861c da3b 63aa 11be d970 72bd 6777 26be
000000a0: 51be fb3b e4f4 823c 53c5 623d 82f6 9ebd
000000b0: be7a 03bd a505 d4bc cf74 36bf ee5e ac3e
000000c0: d428 0e3e 2923 50be 300e 90b9 efc3 6fbd
000000d0: f8d0 58bd 9a04 9a3e b5e2 523d 56b8 02bd
000000e0: eec1 cbbd e416 833d 88c7 843e 44ba 36be
000000f0: ec3f 8bbd 66e4 adbe 0b10 c83c 3c01 15bd
00000100: dff5 323e fce3 e538 b4dd 9c3d 4522 5a3e
00000110: 13d8 10bd 2b93 09be 2e4a 8a3e 0dce 91bc
00000120: 78ec 683c 60a4 393c 89b8 893c 160d 903d
00000130: 0842 803c 23be 523e 8cbf 823e aadc 8fbb
00000140: 1704 243e 09e1 de3c a9d2 f93d ac28 06be
00000150: 2377 da3d 8d2b 223e 64c8 28bc 2f18 1c3c
00000160: f15b 033e 6b8f 9bbe 9765 ad3b 7a26 85bd
00000170: 497e 67bc 6b9c 63be f60c 0c3c c1b2 913d
00000180: 6d06 873e fe31 b3bc 4e03 b240 5f1c ee3d
00000190: 8a8a 893e c090 673d 71b9 53bd a834 5cbd
000001a0: eda6 e2be beeb 823e af25 083e 858a 4abd
000001b0: c5a0 a4bf 883f ee3f e774 b4be a215 febe
000001c0: fcab 993e e684 9a3e 2b08 52c0 9ff4 dd3b
000001d0: 51f8 16bf 5b5e c93d b01b a33c 5715 77bd
000001e0: 3e4d ca3e d51b e13e 94e6 b8be 7fba 7cbe
000001f0: 4e37 bb3e b02d c1be 5514 90bd 6c24 fcbe

onnx::LSTM_118 f4 [1, 128, 32]
-0.03137055 -0.007731614 -0.40343788 0.12835662 -0.005868093 0.014372536 0.15344174 0.062362906
-0.09444888 0.03304285 -0.028163608 0.1809807 -0.1817314 -0.47265652 0.021682268 -0.030876959
-0.041695144 -0.06738468 0.16923721 -0.022016387 0.012159819 0.051164735 0.025403468 -0.106123455
0.11805879 0.06850373 0.021649187 -0.20294309 0.07727214 -0.11522581 -0.005073504 -0.13072838
-0.001125414 -4.4014836e-05 -0.0022110932 0.0059709363 0.00039236716 -0.0003207734 -0.013298424 0.006447172
-0.0009123723 -0.027618974 -0.025155745 0.00082637084 -0.0020417597 0.0029740273 0.014735944 -0.021835575
0.022119738 0.0034449399 -0.00035460957 0.00061968603 0.027227486 0.0011833613 -0.028449636 0.019457214
-0.00870281 0.017932337 -0.015817506 -0.0024869519 -0.016064117 0.0030851136 0.00032098792 -0.00033485828
0.32579377 -0.0022890107 0.06282863 -0.16261582 0.038043648 -0.111595936 0.11585984 -0.3418499
0.06417585 0.196197 0.3169382 0.20224926 -0.056133837 0.13188796 -0.20581673 0.48482051
-0.33750337 -0.2831939 -0.13146682 -0.18981536 -0.32117704 0.015935468 0.21804698 -0.41289675
0.2991949 -0.44929805 0.2435611 0.41831273 0.7472079 -0.13843128 -0.011513776 0.0837334
-0.066303626 0.0052471147 -0.11781834 0.11752078 0.009135043 -0.027654191 -0.04432842 -0.12796347
-0.07288372 -0.022802714 -0.053600058 -0.054430544 0.11780672 -0.12038259 0.034119047 -0.15590571
-0.022098145 -0.046133038 0.2522627 -0.001375367 0.08448139 0.026110077 -0.036567092 0.028339082
-0.115991965 0.1662523 -0.14139043 0.07513781 -0.13589266 0.13034907 -0.001901868 -0.058842327
-0.06037263 0.0036965725 0.10017256 0.029701898 0.03702104 0.019689562 -0.08635569 0.023852061
0.023242477 -0.16380635 -0.16239192 -0.18916474 0.31122592 -0.0025592344 0.03777891 -0.26843384
0.35599816 0.26775417 0.07364118 0.01546392 0.21269242 0.00956719 -0.1290073 0.14737326
-0.25238332 0.19518803 -0.35378286 -0.024650378 -0.12105986 0.13739884 0.017099496 0.15542136
-0.015022278 -0.0045275274 -0.028929476 -0.04085134 -0.028421395 -0.034711808 -0.10570352 -0.124397635
0.007137887 0.0071181576 0.005942245 -0.14361532 0.24779668 0.00611425 0.00981145 0.02876187
-0.0018076549 0.043206733 0.07442026 -0.04635084 0.005598583 -0.021977179 0.00688496 0.0050667617
-0.100314066 -0.039327044 -0.012190308 -0.0043757996 0.043311667 0.13644367 -0.005505594 0.15137403
0.1550249 0.012481959 0.47186548 0.4462724 0.021780286 0.09104374 0.359309 0.6437562
0.036018606 -0.54722303 -0.5967623 -0.04362189 -0.20331001 -0.44103235 0.24362804 -0.46122423
0.6344914 0.107229285 -0.135444 -0.15425962 0.567097 -0.29588607 -0.5611489 0.43043157
-0.3041618 0.7423313 -0.6213501 0.12976143 -0.33613506 0.15960754 0.25028563 -0.22235782
0.02624958 0.007712596 -0.16510965 0.008704233 0.0028223058 -0.0008249046 -0.53044176 -0.16191763
0.031942207 -0.017240854 -0.13195299 0.25949985 -0.31534466 0.25840488 0.19456364 -0.21578516
0.088453196 -0.23576826 0.56865036 0.097250685 0.09087725 -0.17450039 -0.05782231 0.07859982
-0.24021128 -0.10635368 -0.05329471 0.085510634 -0.15443033 -0.024210542 -0.026124256 -0.101785555
00000000: 687e 00bd 7b59 fdbb 698f cebe eb6f 033e
00000010: 2249 c0bb c97a 6b3c d51f 1d3e 3f70 7f3d
00000020: 6a6e c1bd f157 073d 5eb7 e6bc 0153 393e
00000030: cc17 3abe 0900 f2be 039f b13c adf1 fcbc
00000040: 87c8 2abd fb00 8abd 854c 2d3e b65b b4bc
00000050: fa39 473c 1d92 513d ef1a d03c 4157 d9bd
00000060: cfc8 f13d af4b 8c3d a359 b13c 50d0 4fbe
00000070: db40 9e3d 82fb ebbd a33f a6bb a9dd 05be
00000080: a182 93ba 929c 38b8 fde7 10bb d8a7 c33b
00000090: a1b6 cd39 7a2d a8b9 a2e1 59bc cc42 d33b
000000a0: 452c 6fba 3041 e2bc 6c13 cebc cfa0 583a
000000b0: 0bcf 05bb e6e7 423b 076f 713c 85e0 b2bc
000000c0: 7434 b53c 80c4 613b e4ea b9b9 6d72 223a
000000d0: 2d0c df3c 041b 9b3a 360f e9bc bc64 9f3c
000000e0: 3b96 0ebc d6e6 923c b793 81bc 21fc 22bb
000000f0: e598 83bc 9e2f 4a3b 454a a839 eb8f afb9
00000100: 71ce a63e 3a03 16bb 4cac 803d c384 26be
00000110: a8d3 1b3d 698c e4bd ec47 ed3d f306 afbe
00000120: a16e 833d dee7 483e b945 a23e 6e1a 4f3e
00000130: 98ec 65bd a30d 073e 9fc1 52be 653a f83e
00000140: 3ecd acbe cafe 90be 3d9f 06be f55e 42be
00000150: 5171 a4be 198b 823c b547 5f3e 3467 d3be
00000160: 1330 993e 650a e6be 1568 793e 162d d63e
00000170: 0449 3f3f eec0 0dbe 47a4 3cbc 6b7c ab3d
00000180: 32ca 87bd fdef ab3b be4a f1bd bcae f03d
00000190: 26ab 153c 0b8b e2bc b891 35bd db08 03be
000001a0: 0f44 95bd c2cc babc bc8b 5bbd 90f2 5ebd
000001b0: a644 f13d 268b f6bd 6ac0 0b3d bfa5 1fbe
000001c0: 2b07 b5bc fff5 3cbd 9428 813e a945 b4ba
000001d0: 9404 ad3d cde4 d53c 60c7 15bd 5d27 e83c
000001e0: 328d edbd 0b3e 2a3e a7c8 10be dae1 993d
000001f0: 7227 0bbe 3a7a 053e 1a48 f9ba a704 71bd
00000200: 4a49 77bd 3242 723b 4527 cd3d 6551 f33c
00000210: 60a3 173d 014c a13c 41db b0bd 6665 c33c
00000220: 0267 be3c dabc 27be 114a 26be 67b4 41be
00000230: 0159 9f3e d4b8 27bb 0fbe 1a3d 2970 89be
00000240: 6445 b63e 1317 893e 30d1 963d 625c 7d3c
00000250: 0bcc 593e b4bf 1c3c 7d1a 04be 04e9 163e
00000260: 6338 81be 5fdf 473e 0723 b5be 97ef c9bc
00000270: 3bee f7bd 48b2 0c3e 3e14 8c3c c726 1f3e
00000280: 0020 76bc a75b 94bb 82fd ecbc bc53 27bd
00000290: fcd3 e8bc f82d 0ebd 167b d8bd 30c4 febd
000002a0: f0e4 e93b 6f3f e93b 2ab7 c23b e50f 13be
000002b0: 6abe 7d3e 0c5a c83b 34c0 203c 039e eb3c
000002c0: d5ee ecba 8bf9 303d a669 983d 61da 3dbd
000002d0: 5174 b73b 7c09 b4bc 3b9b e13b 1407 a63b
000002e0: 7671 cdbd 6515 21bd dcb9 47bc de62 8fbb
000002f0: 9367 313d e4b7 0b3e 4568 b4bb cb01 1b3e
00000300: d9be 1e3e 2181 4c3c 5a98 f13e d17d e43e
00000310: 926c b23c 2475 ba3d 59f7 b73e 35cd 243f
00000320: 3f88 133d cf16 0cbf 6ac5 18bf deac 32bd
00000330: 8030 50be fece e1be a179 793e 9525 ecbe
00000340: 076e 223f 079b db3d d5b1 0abe 3cf6 1dbe
00000350: 452d 113f 617e 97be 74a7 0fbf 8761 dc3e
00000360: 18bb 9bbe 6d09 3e3f cd10 1fbf 2ee0 043e
00000370: e519 acbe 2970 233e 7025 803e c5b1 63be
00000380: 5c09 d73c f2b9 fc3b 8112 29be 339c 0e3c
00000390: 6ff6 383b 693e 58ba 08cb 07bf bccd 25be
000003a0: d5d5 023d b13c 8dbc af1e 07be 2add 843e
000003b0: db74 a1be a54d 843e b13b 473e c9f6 5cbe
000003c0: f326 b53d 3c6d 71be 1293 113f 5e2b c73d
000003d0: da1d ba3d 3bb0 32be 16d7 6cbd f1f8 a03d
000003e0: f2f9 75be f5cf d9bd 8e4b 5abd 3320 af3d
000003f0: fc22 1ebe 3055 c6bc 8902 d6bc f274 d0bd

onnx::LSTM_119 f4 [1, 256]
-0.1398501 -0.029944863 0.13053823 0.06512116 0.0451002 -0.012592125 -0.52610767 -0.19401284
0.22165295 0.21642661 0.14044818 -0.31730774 -0.405284 -0.16080822 -0.27936316 0.30818436
0.26672578 0.2898051 0.6426015 -0.12123737 0.25979427 -0.44819754 0.19474314 0.05903119
-0.17889538 -0.27218488 0.10111415 -0.035761792 -0.053850777 -0.061822314 -0.06283246 -0.4064911
-0.10124618 -0.030754484 0.302962 -0.037498638 0.1189234 -0.03441564 0.1098776 -0.039645974
0.19537704 0.37520817 0.10903303 0.019199407 0.5262846 -0.20041269 -0.18175648 0.12617606
0.2772051 -0.045378394 0.7093708 0.07636139 0.23278886 -0.060465734 0.31498381 0.014994509
0.26368234 0.28238574 0.19511567 0.014262586 -0.16271098 0.091480926 -0.08256597 0.30525455
0.01268587 -0.02928598 -0.26751453 0.43907517 0.17253816 -0.06973796 0.19428942 0.15283592
-0.09027664 0.5567807 0.23090014 0.26653415 0.55355936 -0.31860527 0.39821726 0.1437561
0.30712703 -0.06458859 -0.07764058 0.16424534 0.21196803 0.31040278 0.3095119 0.22835614
0.44937393 0.39132458 0.13238275 -0.039200153 0.037850935 0.023139402 -0.08813358 0.5596213
-0.038501523 -0.009405951 0.24990249 0.16590296 -0.030469785 0.03527845 0.41046312 -0.1033055
-0.05299711 0.10687832 0.13346466 -0.21193844 -0.078101546 -0.13887805 -0.27233803 0.120234355
-0.11360112 -0.050319083 0.15950635 -0.1357686 -0.12730566 0.11407758 0.22095828 0.060961865
-0.04048977 0.072706245 -0.01964238 -0.05146025 -0.12069945 0.017824614 0.026240442 -0.12618682
-0.05366473 -0.029887605 0.11299259 0.03815085 0.06395788 -0.012481503 -0.47587636 -0.06781041
0.22191273 0.2406625 0.12204674 -0.32690492 -0.4316889 -0.2682263 -0.24071458 0.323039
0.1852307 0.3208799 0.6419774 -0.1252628 0.25099787 -0.4762473 0.2083085 0.05984846
-0.31760344 -0.27771807 0.021864327 -0.048504777 -0.012876894 -0.10656535 -0.080483764 -0.39678216
-0.027876914 -0.03049806 0.36668763 -0.14330418 0.1383265 -0.035170708 0.053224903 0.08209963
0.19684912 0.47853413 0.19151063 -0.058859102 0.54362553 -0.18615758 -0.124858126 0.11612438
0.32632777 -0.029382143 0.7094871 0.08049233 0.2519514 -0.037205372 0.25548705 0.086860456
0.24669252 0.30216706 0.1627352 -0.061576717 -0.043118034 0.02154154 -0.13752517 0.40668508
-0.015449428 -0.02928271 -0.18976827 0.40588486 0.15703674 -0.06970305 0.44692016 0.04426352
-0.08735631 0.5333043 0.23593172 0.34387338 0.4884784 -0.25599256 0.31745255 0.22109275
0.28716633 -0.108483456 0.0058893985 0.1630422 0.22062074 0.3362639 0.33615085 0.219231
0.41363797 0.46402657 0.17707503 0.022779947 0.14537461 0.056483828 -0.08149842 0.52479315
-0.12952869 0.024852121 0.19577001 0.27891645 -0.017037354 0.048163608 0.5093027 -0.06772262
-0.05726679 0.14615636 0.11858719 -0.087783955 0.05691212 0.03423467 -0.26568744 0.0061699054
-0.34858626 0.07392006 -0.08359715 0.07396974 -0.106030524 0.12400542 0.18890838 0.07505454
0.05602829 -0.037186004 0.065272234 -0.232301 -0.25984976 -0.012119726 0.009216949 0.113619946
00000000: dd34 0fbe ee4e f5bc d0ab 053e 3e5e 853d
00000010: fdba 383d 334f 4ebc feae 06bf 4dab 46be
00000020: fef8 623e f09e 5d3e a6d1 0f3e 2976 a2be
00000030: 6281 cfbe e9aa 24be b008 8fbe 57ca 9d3e
00000040: 4890 883e 5661 943e 8881 243f 4c4b f8bd
00000050: c103 853e 267a e5be bf6a 473e b0ca 713d
00000060: 5a30 37be d15b 8bbe ef14 cf3d f57a 12bd
00000070: a292 5cbd 6539 7dbd 4eae 80bd 9a1f d0be
00000080: 285a cfbd d4f0 fbbc d61d 9b3e 2c98 19bd
00000090: 1d8e f33d 6af7 0cbd 8207 e13d d163 22bd
000000a0: eb10 483e 491b c03e b64c df3d 1348 9d3c
000000b0: 96ba 063f fc38 4dbe 5f1e 3abe 4c34 013e
000000c0: d4ed 8d3e b2de 39bd 5399 353f 5c63 9c3d
000000d0: 3460 6e3e ebaa 77bd 8f45 a13e 87ab 753c
000000e0: 5f01 873e dd94 903e 67cc 473e 9fad 693c
000000f0: b59d 26be 5a5a bb3d 5918 a9bd 534a 9c3e
00000100: 65d8 4f3c 27e9 efbc aaf7 88be 76ce e03e
00000110: d8ad 303e c7d2 8ebd cef3 463e 0581 1c3e
00000120: f6e2 b8bd 2e89 0e3f 1671 6c3e 2a77 883e
00000130: 11b6 0d3f 3b20 a3be 22e3 cb3e cd34 133e
00000140: c13f 9d3e 0647 84bd 0602 9fbd ee2f 283e
00000150: 260e 593e 1ded 9e3e 5878 9e3e 31d6 693e
00000160: 5714 e63e b25b c83e 588f 073e 5790 20bd
00000170: 9509 1b3d d88e bd3c 617f b4bd 5743 0f3f
00000180: c6b3 1dbd 6b1b 1abc 70e6 7f3e 77e2 293e
00000190: c59b f9bc 2380 103d 3928 d23e d591 d3bd
000001a0: 7f13 59bd 05e3 da3d f6aa 083e 6406 59be
000001b0: b4f3 9fbd 0c36 0ebe e46f 8bbe 6e3d f63d
000001c0: b4a7 e8bd 621b 4ebd a255 233e ed06 0bbe
000001d0: 6a5c 02be 82a1 e93d e342 623e 26b3 793d
000001e0: 9ad8 25bd 03e7 943d 0ee9 a0bc fcc7 52bd
000001f0: 4631 f7bd ed04 923c 32f6 d63c 1e37 01be
00000200: 8ccf 5bbd dad6 f4bc a968 e73d 1144 1c3d
00000210: 59fc 823d 387f 4cbc 11a6 f3be 2fe0 8abd
00000220: 173d 633e 3b70 763e a4f3 f93d 1560 a7be
00000230: 5406 ddbe f554 89be e27d 76be 5e65 a53e
00000240: 1ead 3d3e 5f4a a43e a258 243f e444 00be
00000250: cb82 803e b0d6 f3be d34e 553e a923 753d
00000260: eb9c a2be 1031 8ebe d11c b33c f2ac 46bd
00000270: 9cf9 52bc ef3e dabd acd4 a4bd 0827 cbbe
00000280: 205e e4bc 11d7 f9bc 7bbe bb3e 55be 12be
00000290: 76a5 0d3e 290f 10bd 5b02 5a3d da23 a83d
000002a0: d192 493e 6d02 f53e 5d1b 443e 3e16 71bd
000002b0: 0b2b 0b3f 18a0 3ebe 9eb5 ffbd 9ed2 ed3d
000002c0: 6f14 a73e d2b2 f0bc f2a0 353f 2ad9 a43d
000002d0: c6ff 803e a964 18bd 33cf 823e e5e3 b13d
000002e0: f79c 7c3e a4b5 9a3e 0ea4 263e de37 7cbd
000002f0: 899c 30bd e277 b03c 66d3 0cbe 0739 d03e
00000300: 991f 7dbc 4be2 efbc 9d52 42be 24d0 cf3e
00000310: 3dce 203e 79c0 8ebd b8d2 e43e aa4d 353d
00000320: dde7 b2bd a186 083f 1698 713e 2c10 b03e
00000330: d719 fa3e 7511 83be 2489 a23e 2366 623e
00000340: 7707 933e 932c debd dbfb c03b 89f4 263e
00000350: 67ea 613e c82a ac3e f71b ac3e 177e 603e
00000360: 5bc8 d33e e494 ed3e 2853 353e 039d ba3c
00000370: 15dd 143e 965b 673d a5e8 a6bd d858 063f
00000380: 2ba3 04be ad96 cb3c ef77 483e 23ce 8e3e
00000390: ec91 8bbc 3447 453d a961 023f 28b2 8abd
000003a0: 9590 6abd 03aa 153e d7dd f23d 13c8 b3bd
000003b0: af1c 693d a739 0c3d 2f08 88be eb2c ca3b
000003c0: e679 b2be 6763 973d fc34 abbd 727d 973d
000003d0: 8826 d9bd 8ef6 fd3d 3371 413e 32b6 993d
000003e0: ec7d 653d 5a50 18bd 73ad 853d 50e0 6dbe
000003f0: 070b 85be d191 46bc b002 173c 93b1 e83d

onnx::MatMul_122 f4 [32, 1]
0.15109593 -0.01556212 0.16018187 -0.07867338 0.29548585 -0.009439078 -0.39615673 -0.36935702
-0.030644268 -0.026253445 0.016957432 -0.052240822 0.08367415 -1.9632715 -0.050896257 -0.18027541
-0.18056439 0.64774024 -0.044009563 0.0484021 -0.18286271 0.008122346 -0.2610436 -0.15410164
0.38236558 -0.16181579 -0.04572452 0.5909622 -0.39792734 -0.018131673 0.1018936 -0.38351962
00000000: e4b8 1a3e 43f8 7ebc b706 243e 821f a1bd
00000010: ec49 973e 5da6 1abc 0ed5 cabe 5d1c bdbe
00000020: b009 fbbc 7711 d7bc 50ea 8a3c 79fa 55bd
00000030: 5a5d ab3d 7b4c fbbf 9878 50bd 1e9a 38be
00000040: dfe5 38be 4ed2 253f 5f43 34bd 4841 463d
00000050: 5d40 3bbe 9713 053c 82a7 85be d2cc 1dbe
00000060: 6cc5 c33e 0ab3 25be a249 3bbd 4c49 173f
00000070: 22bd cbbe e088 94bc 97ad d03d af5c c4be
